{"class_name": "Model", "config": {"name": "model_56", "layers": [{"name": "input_56", "class_name": "InputLayer", "config": {"batch_input_shape": [null, 4, 2], "dtype": "float32", "sparse": false, "name": "input_56"}, "inbound_nodes": []}, {"name": "dense_166", "class_name": "Dense", "config": {"name": "dense_166", "trainable": true, "units": 64, "activation": "relu", "use_bias": true, "kernel_initializer": {"class_name": "VarianceScaling", "config": {"scale": 1.0, "mode": "fan_avg", "distribution": "uniform", "seed": null}}, "bias_initializer": {"class_name": "Zeros", "config": {}}, "kernel_regularizer": {"class_name": "L1L2", "config": {"l1": 0.0, "l2": 0.009999999776482582}}, "bias_regularizer": null, "activity_regularizer": null, "kernel_constraint": null, "bias_constraint": null}, "inbound_nodes": [[["input_56", 0, 0, {}]]]}, {"name": "lstm_56", "class_name": "LSTM", "config": {"name": "lstm_56", "trainable": true, "return_sequences": false, "return_state": false, "go_backwards": false, "stateful": false, "unroll": false, "units": 32, "activation": "tanh", "recurrent_activation": "hard_sigmoid", "use_bias": true, "kernel_initializer": {"class_name": "VarianceScaling", "config": {"scale": 1.0, "mode": "fan_avg", "distribution": "uniform", "seed": null}}, "recurrent_initializer": {"class_name": "Orthogonal", "config": {"gain": 1.0, "seed": null}}, "bias_initializer": {"class_name": "Zeros", "config": {}}, "unit_forget_bias": true, "kernel_regularizer": null, "recurrent_regularizer": null, "bias_regularizer": null, "activity_regularizer": null, "kernel_constraint": null, "recurrent_constraint": null, "bias_constraint": null, "dropout": 0.0, "recurrent_dropout": 0.0, "implementation": 1}, "inbound_nodes": [[["input_56", 0, 0, {}]]]}, {"name": "flatten_56", "class_name": "Flatten", "config": {"name": "flatten_56", "trainable": true}, "inbound_nodes": [[["dense_166", 0, 0, {}]]]}, {"name": "concatenate_56", "class_name": "Concatenate", "config": {"name": "concatenate_56", "trainable": true, "axis": -1}, "inbound_nodes": [[["lstm_56", 0, 0, {}], ["flatten_56", 0, 0, {}]]]}, {"name": "dense_167", "class_name": "Dense", "config": {"name": "dense_167", "trainable": true, "units": 8, "activation": "relu", "use_bias": true, "kernel_initializer": {"class_name": "VarianceScaling", "config": {"scale": 1.0, "mode": "fan_avg", "distribution": "uniform", "seed": null}}, "bias_initializer": {"class_name": "Zeros", "config": {}}, "kernel_regularizer": {"class_name": "L1L2", "config": {"l1": 0.0, "l2": 0.009999999776482582}}, "bias_regularizer": null, "activity_regularizer": null, "kernel_constraint": null, "bias_constraint": null}, "inbound_nodes": [[["concatenate_56", 0, 0, {}]]]}, {"name": "dense_168", "class_name": "Dense", "config": {"name": "dense_168", "trainable": true, "units": 8, "activation": "relu", "use_bias": true, "kernel_initializer": {"class_name": "VarianceScaling", "config": {"scale": 1.0, "mode": "fan_avg", "distribution": "uniform", "seed": null}}, "bias_initializer": {"class_name": "Zeros", "config": {}}, "kernel_regularizer": {"class_name": "L1L2", "config": {"l1": 0.0, "l2": 0.009999999776482582}}, "bias_regularizer": null, "activity_regularizer": null, "kernel_constraint": null, "bias_constraint": null}, "inbound_nodes": [[["dense_167", 0, 0, {}]]]}, {"name": "output_layer", "class_name": "Dense", "config": {"name": "output_layer", "trainable": true, "units": 1, "activation": "linear", "use_bias": true, "kernel_initializer": {"class_name": "VarianceScaling", "config": {"scale": 1.0, "mode": "fan_avg", "distribution": "uniform", "seed": null}}, "bias_initializer": {"class_name": "Zeros", "config": {}}, "kernel_regularizer": null, "bias_regularizer": null, "activity_regularizer": null, "kernel_constraint": {"class_name": "NonNeg", "config": {}}, "bias_constraint": null}, "inbound_nodes": [[["dense_168", 0, 0, {}]]]}], "input_layers": [["input_56", 0, 0]], "output_layers": [["output_layer", 0, 0]]}, "keras_version": "2.1.3", "backend": "tensorflow"}